('Training with ', 10000, ' elements')
_________________________________________________________________
Layer (type)                 Output Shape              Param #   
=================================================================
dense_1 (Dense)              (None, 32)                131104    
_________________________________________________________________
dropout_1 (Dropout)          (None, 32)                0         
_________________________________________________________________
dense_2 (Dense)              (None, 64)                2112      
_________________________________________________________________
dropout_2 (Dropout)          (None, 64)                0         
_________________________________________________________________
dense_3 (Dense)              (None, 16)                1040      
_________________________________________________________________
dense_4 (Dense)              (None, 1)                 17        
=================================================================
Total params: 134,273
Trainable params: 134,273
Non-trainable params: 0
_________________________________________________________________
Train on 10000 samples, validate on 10000 samples
Epoch 1/100

   32/10000 [..............................] - ETA: 6:47 - loss: 1.1811 - acc: 0.3750
  256/10000 [..............................] - ETA: 51s - loss: 0.6810 - acc: 0.5000 
…
